practice/cifar_net.pth (torch, 250887 bytes, 10 tensors)

conv1.weight f4 [6, 3, 5, 5]
0	0x3e0de48d	0.13856716
1	0x3e62f623	0.22164206
2	0x3eb8f2ee	0.3612284
3	0x3efd9695	0.49528947
4	0x3e3c09bc	0.18363088
5	0x3e4ccbdf	0.19999646
6	0x3d86f1bb	0.06589075
7	0x3ecfbefe	0.40575403
8	0x3eb2de65	0.349353
9	0x3e7bc310	0.24586129
10	0x3dec6dc6	0.11544375
11	0xbe0ce4a9	-0.13759102
12	0x3d445057	0.04792818
13	0x3ed638df	0.41840264
14	0x3e4b0208	0.19824994
15	0xbd91c30d	-0.07117281
16	0xbe677b98	-0.22605741
17	0xbec76153	-0.3894144
18	0x3d9bc9e1	0.07606865
19	0xbd859426	-0.06522398
20	0x3c603aa9	0.013685861
21	0xbe8bd502	-0.2731095
22	0xbe6d637f	-0.23182486
23	0xbe0abc02	-0.13548282
24	0xbe17524b	-0.14777486
25	0xbed9b3a9	-0.42519882
26	0xbef926a3	-0.4866229
27	0xbe6098d3	-0.21933298
28	0xbd73fd28	-0.0595676
29	0xbe722ab0	-0.23649096
30	0xbe6c10af	-0.2305324
31	0xbeb98006	-0.36230487
32	0xbe92c41c	-0.28665245
33	0x3dec5cb8	0.11541122
34	0xbd8c1e93	-0.06841769
35	0xbe0c82a5	-0.13721712
36	0xbed29376	-0.4112813
37	0xbe857c59	-0.26071432
38	0x3e297978	0.16550243
39	0xbca5cfa6	-0.020240616
40	0xbc1fea08	-0.009760387
41	0xbec3ed0e	-0.38266796
42	0xbeca05b7	-0.39457485
43	0xbc95505b	-0.018226793
44	0xbe276d84	-0.1635037
45	0x3e72f4ca	0.23726192
46	0xbd6920f6	-0.0569162
47	0xbe6d8b0a	-0.2319757
48	0xbc6e7f31	-0.014556692
49	0x3db14219	0.08655185
50	0xbe257825	-0.16159113
51	0xbdc61c25	-0.09673337
52	0xbe00f8ce	-0.12594911
53	0xbc7503b5	-0.014954497
54	0xbda13591	-0.07871545
55	0x3e384845	0.17996319
56	0xbe51dbe6	-0.20494041
57	0xbc9db955	-0.019253412
58	0x3e5700ae	0.20996353
59	0x3d2f6ac7	0.04282644
60	0x3e82f710	0.2557912
61	0xbdf59de2	-0.119930044
62	0x3c87f4d7	0.01659624
63	0x3ec904f5	0.39261594
64	0x3d678ae5	0.056528945
65	0x3dbbc11d	0.09167693
66	0xbe6b55c6	-0.22981939
67	0xbdbca7cb	-0.092116915
68	0x3e41413a	0.18872538
69	0xbd0c3d27	-0.034238007
70	0x3eebeff9	0.46081522
71	0x3e5a5560	0.2132163
72	0xbda8626a	-0.08221896
73	0x3dd5d1b8	0.10440391
74	0x3befe7a9	0.007321317
75	0xbdf47413	-0.11936202
76	0x3dd07a4c	0.10179576
77	0x3e2af7b2	0.16696051
78	0x3d528cde	0.051403873
79	0xbe0f76a4	-0.14010102
80	0xbd2617a4	-0.04054989
81	0x3e31248b	0.17299096
82	0x3ce52b33	0.0279747
83	0xbe38f816	-0.18063387
84	0xbe3c4881	-0.18387033
85	0x3e73c5f7	0.23805986
86	0x3d9e978e	0.077437505
87	0xbc838a5b	-0.016057184
88	0xbea49f2d	-0.3215269
89	0xbe4296e0	-0.19002867
90	0x3cd44438	0.025911435
91	0xbe388937	-0.18021093
92	0xbe7ccf7d	-0.24688525
93	0xbea52505	-0.32254806
94	0x3e3fcf1f	0.18731354
95	0xbe7dd98c	-0.24790019
96	0xbeac578d	-0.33660546
97	0xbe87485a	-0.26422387
98	0x3c50814c	0.012726139
99	0x3e90c37c	0.28274143
100	0xbe398bf6	-0.18119797
101	0x3da1e664	0.07905272
102	0x3ba08eb4	0.004899824
103	0xbe2b570e	-0.16732427
104	0xbe9fb581	-0.31193164
105	0xbd3fafb7	-0.046798434
106	0x3d350155	0.044190723
107	0x3daf11e3	0.085483335
108	0xbe1d9100	-0.15387344
109	0xbe4a7d51	-0.19774367
110	0x3e36a16a	0.17835012
111	0x3e0e044b	0.13868825
112	0xbe1ab8ab	-0.15109508
113	0xbea6e19e	-0.32594007
114	0xbc427081	-0.011867643
115	0xbd87bb0f	-0.066274755
116	0xbe5bd4e2	-0.21467927
117	0xbe62a6a6	-0.22133884
118	0xbe935ace	-0.28780216
119	0x3e46d385	0.19416626
120	0xbe7439c8	-0.23850167
121	0xbdaf58db	-0.0856187
122	0xbda64171	-0.08117951
123	0x3d91acc4	0.071130306
124	0x3ef5b490	0.4798932
125	0xbcab134a	-0.020883221
126	0x3c031b11	0.008002059
127	0x3e0f02d1	0.13965918
128	0x3e0e7621	0.1391225
129	0xbdbe44af	-0.09290444
130	0xbd30afb5	-0.043136317
131	0x3da780a4	0.08178833
132	0x3dbd89b1	0.09254778
133	0x3d2c9f9b	0.0421444
134	0xbc811c6c	-0.015760623
135	0x3cc184c7	0.023622883
136	0x3e2704d3	0.16310434
137	0xbd9ff741	-0.07810832
138	0xbcf5d8f2	-0.030010674
139	0x3e1cb715	0.15304215
140	0xbd30b129	-0.043137703
141	0x3b2ae47c	0.0026076129
142	0xbe934730	-0.2876525
143	0xbd50221e	-0.050813787
144	0x3e99aa2a	0.30012637
145	0xbdedb831	-0.11607397
146	0xbd972a59	-0.07381124
147	0xbdcaa85b	-0.098953925
148	0x3e6d0183	0.23145108
149	0x3f1c83b8	0.61138487
150	0xbde2aec2	-0.11068489
151	0xbe9e086e	-0.30865806
152	0xbe3025b9	-0.1720189
153	0xbe98569a	-0.29753572
154	0xbe5da19c	-0.2164368
155	0xbdabd898	-0.08390921
156	0xbe326770	-0.17422271
157	0xbe2361d5	-0.15955289
158	0xbcac8fd9	-0.021064686
159	0xbe66e943	-0.2254992
160	0xbda0a85f	-0.07844614
161	0x3ac3bff0	0.0014934521
162	0xbb2547c6	-0.0025219782
163	0xbe006d0b	-0.12541597
164	0xbd42f43f	-0.047596212
165	0xbdb9b212	-0.09067167
166	0xbe66bd60	-0.22533178
167	0xbe6a221c	-0.22864574
168	0xbdc639ce	-0.09678994
169	0xbe08a08f	-0.13342498
170	0xbd537975	-0.051629502
171	0xbc19628b	-0.009361873
172	0xbe04dc60	-0.12974691
173	0xbe2f2065	-0.17102201
174	0xbe13276a	-0.14370504
175	0xbe0ab617	-0.13546024
176	0xbdc83ef3	-0.097776316
177	0xbe886771	-0.2664142
178	0xbe66711e	-0.22504088
179	0xbdf38784	-0.11891082
180	0xba8ac593	-0.0010587446
181	0x3d2a702e	0.04161089
182	0x3cd0da51	0.025494726
183	0xbd326335	-0.043551642
184	0xbc188524	-0.009309087
185	0x3ca1aa5d	0.019734556
186	0x3e406903	0.18790059
187	0x3e92d168	0.2867539
188	0x3e2e2f70	0.17010283
189	0x3dbc2b0c	0.09187898
190	0xbdb3f45c	-0.08786842
191	0xbb6e6a68	-0.003637934
192	0x39267a2e	0.00015876509
193	0xbd480959	-0.04883704
194	0xbdad605b	-0.08465644
195	0xbd3258b8	-0.04354164
196	0x3c71a8e5	0.01474974
197	0xbbd49947	-0.0064879986
198	0xbda9fd13	-0.08300223
199	0xbe3952c4	-0.18097979
200	0x3e081cc5	0.13292225
201	0x3dc4f6c0	0.09617376
202	0x3d01b9d5	0.031671364
203	0x3d617ed1	0.055052582
204	0xbc23d4da	-0.009999478
205	0x3ebf181e	0.37323087
206	0x3ed0d2c6	0.40785807
207	0x3eafb23f	0.34315678
208	0x3e7c6162	0.24646524
209	0x3d8245d0	0.06360972
210	0x3eb327ff	0.34991452
211	0x3eda2587	0.42606756
212	0x3eea7239	0.4579027
213	0x3e91e673	0.2849613
214	0x3e0ed99f	0.13950203
215	0x3dc2fd2f	0.09520947
216	0x3e0a1545	0.13484676
217	0x3dd6acca	0.10482176
218	0x3e302ff7	0.17205797
219	0x3dffbf6e	0.12487684
220	0x3e1adf92	0.15124348
221	0x3d315112	0.043290205
222	0x3dd3031c	0.103033274
223	0x3cf20f3f	0.029548286
224	0x3cc3572e	0.023845281
225	0x3e2d93ee	0.16950962
226	0x3e42064f	0.18947719
227	0x3ebd99e6	0.37031478
228	0x3e6df4a3	0.23237853
229	0xbd566787	-0.052344825
230	0x3edabdae	0.4272284
231	0x3f01c406	0.50689733
232	0x3eaffcc3	0.3437253
233	0x3e75bca2	0.23997739
234	0x3d70d58d	0.058797408
235	0xbd247967	-0.04015484
236	0x3d00ecb1	0.031475727
237	0x3bd9b961	0.0066444133
238	0xbcaad3d8	-0.020852968
239	0xbdcdb185	-0.10043625
240	0xbe8c8e3b	-0.27452263
241	0xbec86939	-0.3914278
242	0xbe8a291f	-0.26984498
243	0xbe191285	-0.14948471
244	0xbe1f4a9a	-0.15555802
245	0xbe4ddf6f	-0.20104764
246	0xbe58bb01	-0.21165086
247	0xbda380cf	-0.07983553
248	0xbe510c41	-0.2041483
249	0xbe480ae8	-0.1953541
250	0x3d7c8a85	0.06165554
251	0x3dea3497	0.11435812
252	0x3e4c0a83	0.19925885
253	0x3e05265f	0.13002919
254	0x3c5a203e	0.013313351
255	0x3e9d430f	0.30715224

conv1.bias f4 [6]
0	0xbef057a2	-0.4694186
1	0xbe002817	-0.12515293
2	0x3e9d2925	0.30695453
3	0xbedbf820	-0.42962742
4	0xbe14f5f3	-0.14546947
5	0xbdd9b2d2	-0.106298104

conv2.weight f4 [16, 6, 5, 5]
0	0xbd837ad1	-0.0641991
1	0xbd3e73aa	-0.046497025
2	0xbde9f759	-0.11424131
3	0xbd8f6041	-0.07000781
4	0x3c1b1d39	0.009467416
5	0xbd7a389e	-0.06108915
6	0xbd91a915	-0.07112328
7	0xbe0137f2	-0.12618998
8	0xbcd8e059	-0.026474165
9	0xbd836762	-0.06416203
10	0x3d6db0f4	0.058030084
11	0xbdeb34df	-0.11484694
12	0xbe1dd68e	-0.15413877
13	0xbdba0626	-0.09083204
14	0xbdfe1602	-0.124065414
15	0x3bc57ca2	0.0060268203
16	0x3d02b2e9	0.031908903
17	0xbdc1c456	-0.09461276
18	0xbd951386	-0.072791144
19	0xbe017299	-0.12641372
20	0xbe049450	-0.12947202
21	0xbaf63fca	-0.0018787321
22	0x3d1ad291	0.037798468
23	0xbe09ae9e	-0.13445517
24	0xbd610687	-0.054937866
25	0xbde45e72	-0.111508265
26	0xbe2a7da4	-0.1664949
27	0xbd708da3	-0.058728825
28	0xbdfc1b79	-0.123099275
29	0xbe1cad97	-0.15300594
30	0xbce8e31e	-0.02842861
31	0xbd5c5a44	-0.05379702
32	0xbe353f95	-0.17700036
33	0xbd233220	-0.039842725
34	0xbde306e5	-0.110852994
35	0xbdc30c04	-0.09523776
36	0xbdaccea2	-0.084378496
37	0xbde3ca65	-0.11122588
38	0xbdf9f8e4	-0.12205675
39	0xbd80f0dc	-0.0629594
40	0x3cf86582	0.03032184
41	0xbd02c709	-0.031928096
42	0xbdfe8674	-0.12427989
43	0xbe2ede77	-0.17077051
44	0xbdb54d57	-0.08852642
45	0xba678d7a	-0.00088330323
46	0xbe2c7f80	-0.16845512
47	0xbdbe11c7	-0.092807345
48	0xbdd50899	-0.104020305
49	0xbcbf00d2	-0.02331582
50	0x3bcbf735	0.0062245377
51	0xbc4391d9	-0.011936628
52	0x3d37100b	0.044693034
53	0xbd3b1670	-0.045675695
54	0x3d74c004	0.059753433
55	0xbd06eb83	-0.032939445
56	0xbdaf8603	-0.085704826
57	0xbd2a8981	-0.04163504
58	0x3d7c8d8f	0.06165844
59	0x3d2ebf85	0.042663116
60	0xbbd98ee1	-0.006639347
61	0x3d40fb67	0.047114756
62	0xbcc097d7	-0.023509903
63	0xbc392c65	-0.011302088
64	0xbd6373d5	-0.055530388
65	0xbdfe1451	-0.12406219
66	0xbaf60e4f	-0.0018772575
67	0xbc9b6f5f	-0.018974004
68	0xbdbd94c4	-0.092568904
69	0xbc67f919	-0.014158511
70	0xbb9de548	-0.004818592
71	0xbd2e8dcd	-0.0426157
72	0xbda6736e	-0.08127485
73	0x3c312c01	0.010813714
74	0xbdf1044d	-0.117683984
75	0xbd7d4904	-0.06183721
76	0xbd94c986	-0.07265
77	0xbd8085cd	-0.062755205
78	0x3b3bf210	0.0028678216
79	0xbd54ea21	-0.051981095
80	0x3d80f7ca	0.06297262
81	0xbd3ea809	-0.04654697
82	0xbd0270df	-0.031845924
83	0xbdeeec66	-0.11666183
84	0xbdc86ca0	-0.097863436
85	0x3e5fd443	0.21858315
86	0x3d7d57de	0.061851375
87	0xbda83cac	-0.08214697
88	0xbd975d2c	-0.07390818
89	0xbe22bf60	-0.15893316
90	0x3d426399	0.047458265
91	0x3c1cde1b	0.009574438
92	0xbd4fc009	-0.05072025
93	0xbdee9a02	-0.116504684
94	0xbdc0423e	-0.09387635
95	0x3bcfcf61	0.00634186
96	0xbdbed3ca	-0.09317739
97	0xbd072ca0	-0.033001542
98	0xbc84f649	-0.01623072
99	0x3d2d6609	0.042333636
100	0x3c93e1d3	0.018052017
101	0x3afecf8f	0.0019440519
102	0xbced3cac	-0.028959595
103	0x3d057342	0.03258062
104	0x3d6d7c25	0.05797972
105	0xbd8317a4	-0.064009935
106	0xbdd4eb4a	-0.1039644
107	0xbcdd0886	-0.026981603
108	0xbdb45f6f	-0.08807265
109	0xbbf0e322	-0.007351295
110	0xbd6490e7	-0.055802252
111	0xbd8b1580	-0.0679121
112	0x3c16ab33	0.0091960905
113	0xbd5ab2db	-0.053393226
114	0xbd14a1d7	-0.036287155
115	0x3d8a77da	0.06761141
116	0xbd4e1d8d	-0.05032115
117	0xbd65c5c2	-0.0560968
118	0x3d844c8c	0.06459913
119	0x3cd271f0	0.025689095
120	0x3ca2df08	0.01988174
121	0xbd944e95	-0.07241551
122	0x3d9062d4	0.070501
123	0x3c9674e1	0.01836628
124	0x3e1dbaf1	0.15403344
125	0x3db7786b	0.08958515
126	0x3dce3fe6	0.100707814
127	0x3dc0afcb	0.0940853
128	0x3d84d1a1	0.06485296
129	0x3d8008f4	0.06251708
130	0x3dec0b76	0.115256235
131	0x3de5d944	0.11223081
132	0x3dd9ac12	0.10628523
133	0x3e33ae81	0.17547037
134	0x3c65ea46	0.014032906
135	0x3de54c56	0.111962005
136	0x3db5df74	0.08880511
137	0x3e2a60d3	0.16638498
138	0x3e1027bf	0.14077662
139	0x3e41c55a	0.1892294
140	0x3e25b163	0.16180949
141	0x3d600baf	0.054698642
142	0x3c85b26d	0.016320432
143	0x3e126de5	0.14299734
144	0x3daf731f	0.085668795
145	0x3dc1847a	0.09449096
146	0x3d90f6be	0.07078312
147	0x3e440b34	0.19144899
148	0x3dc31b8a	0.09526737
149	0x3e5b67eb	0.2142636
150	0xbd957ed9	-0.07299585
151	0x3c713ffa	0.014724726
152	0xbd49b5b5	-0.049245555
153	0xbda7fab0	-0.08202112
154	0xbcc3128a	-0.023812551
155	0xbc22457a	-0.00990426
156	0x3da7a164	0.0818508
157	0x3cca85e5	0.024722049
158	0xbc491579	-0.012273186
159	0xbb80e3d7	-0.0039334106
160	0x3d40bfd5	0.047057945
161	0xbd489690	-0.048971713
162	0x3cd75be0	0.026288927
163	0xbd95b540	-0.07309961
164	0x3c1dfc81	0.009642721
165	0xbd6c055c	-0.0576223
166	0x3dacd745	0.08439497
167	0x3c04020d	0.00805713
168	0xbdbee1a9	-0.09320385
169	0xbda5aefc	-0.08090016
170	0x3caf9bf9	0.021436678
171	0xbdac7ce7	-0.08422261
172	0xbd33dee2	-0.04391373
173	0x3c0348ef	0.008012994
174	0xbc01cd41	-0.0079224715
175	0xbcbaa7f9	-0.022785174
176	0xbd47e369	-0.04880086
177	0xbd9c68bc	-0.07637164
178	0xbda2ba7f	-0.079457276
179	0xbdaecbc4	-0.08534959
180	0xbcfa5ae4	-0.030560918
181	0xbd9538a0	-0.07286191
182	0xbd6ee601	-0.058324818
183	0xbde706da	-0.11280604
184	0xbdcd6157	-0.10028332
185	0xbd74f363	-0.059802424
186	0x3d473e6c	0.048643515
187	0xbdabf926	-0.08397131
188	0xbd5388c3	-0.051644098
189	0xbcda3dac	-0.026640736
190	0xbd807bcb	-0.06273612
191	0xbd74657b	-0.05966709
192	0x3d1a2a6b	0.03763811
193	0xbd43b5ab	-0.047780674
194	0x3d840515	0.06446282
195	0xbc4655dc	-0.012105431
196	0xbd135f2b	-0.03597943
197	0xbd45d3d3	-0.048297714
198	0x3d9414f0	0.07230556
199	0xbd399a2a	-0.045313038
200	0x3d6bb08e	0.057541423
201	0x3da258c5	0.07927088
202	0x3df46c43	0.11934712
203	0x3d986018	0.074402034
204	0x3de4774b	0.11155566
205	0xbcf12a91	-0.029439243
206	0xba4d3b9c	-0.0007829012
207	0x3cfa2b19	0.030538129
208	0x3e13c408	0.14430249
209	0xbc847fe3	-0.016174262
210	0x3d50cee9	0.050978575
211	0xbc2eb594	-0.010663409
212	0x3d9fee59	0.07809133
213	0x3cfdb1b6	0.030968528
214	0x3dc3d346	0.095617816
215	0x3dcb4871	0.099259265
216	0x3db8663e	0.09003876
217	0x3e03e840	0.12881565
218	0x3cdb46b2	0.026767109
219	0x3e13353f	0.1437578
220	0x3e32456b	0.17409293
221	0x3daf8564	0.08570364
222	0x3dcb7eb8	0.09936279
223	0x3e46ea6f	0.19425367
224	0x3d280b69	0.041026507
225	0xbcd9a261	-0.026566686
226	0xbca46d81	-0.020071747
227	0xbd83343e	-0.06406449
228	0xbcfa8067	-0.030578805
229	0xbd32b408	-0.043628722
230	0xbc57f6ac	-0.01318137
231	0x3d9d9b90	0.07695687
232	0xbcd9de58	-0.02659528
233	0x3b1fff34	0.0024413588
234	0x3c36d858	0.011159979
235	0xbd602440	-0.05472207
236	0x3d2163cb	0.03940181
237	0x3c0920bd	0.008369622
238	0xbdad2e3c	-0.08456084
239	0x3c7a5ad4	0.015280444
240	0xbdcb7b45	-0.09935621
241	0xbd322b42	-0.043498285
242	0xbc87e81c	-0.01659017
243	0xbd97e3e6	-0.07416515
244	0xbdcae908	-0.099077284
245	0x3c0a140f	0.008427634
246	0xbdd99847	-0.10624748
247	0xbe158bc9	-0.14604105
248	0xbd798109	-0.060914073
249	0xbdf15e02	-0.11785509
250	0xbe0e27e7	-0.13882409
251	0xbbac6f20	-0.0052622706
252	0xbd8e127d	-0.0693712
253	0xbe09d25e	-0.13459155
254	0xbdd3e1d8	-0.10345811
255	0x3c3b3398	0.011425875

conv2.bias f4 [16]
0	0x3e2f1539	0.1709794
1	0x3e5bf493	0.21480016
2	0xbe9cab75	-0.3059956
3	0x3e5d3000	0.21600342
4	0xbf1a2fe5	-0.6022933
5	0x3f245c83	0.6420366
6	0xbcf445a4	-0.029818363
7	0xbf222444	-0.63336587
8	0xbe46d2a1	-0.19416286
9	0xbb63f5aa	-0.0034783878
10	0xbef37d77	-0.4755666
11	0x3f2fa321	0.6860829
12	0x3f1cbb8b	0.6122367
13	0x3e5ffd18	0.21873891
14	0x3c45fadb	0.012083734
15	0x3d70e3d8	0.05881104

fc1.weight f4 [120, 400]
0	0xbcd488b3	-0.02594409
1	0xbc673e88	-0.01411403
2	0xbcea6e52	-0.028617058
3	0x3b8545b0	0.0040671453
4	0xbd518ede	-0.05116164
5	0xbd321fc6	-0.043487333
6	0xbd4f9d12	-0.050686903
7	0xbd5382af	-0.0516383
8	0xbc802a2f	-0.015645115
9	0xbc400968	-0.011720993
10	0x3c9c2bbb	0.019063821
11	0xbca9fd2b	-0.020750603
12	0x3d6fedd8	0.058576435
13	0x3cf53fd2	0.029937658
14	0xbcc709fd	-0.024296755
15	0x3c2b214e	0.010444952
16	0xbd6a7445	-0.05723979
17	0x3b44fd4c	0.0030058203
18	0xba59c4e9	-0.0008307235
19	0xbb88385d	-0.0041571097
20	0xbd156bfc	-0.036479935
21	0xbc87b799	-0.016567038
22	0xbd75bb64	-0.059993163
23	0xbc1909b0	-0.009340689
24	0x3d0351d2	0.03206045
25	0xbdb6f481	-0.08933354
26	0xbd80d636	-0.062908575
27	0xbcf8a63f	-0.03035271
28	0xbd06a4f0	-0.03287214
29	0x3c31e55a	0.010857904
30	0xbd3a9764	-0.045554534
31	0xbbb7c79a	-0.005608511
32	0xbd1f24eb	-0.038853567
33	0x3ae7617d	0.0017652955
34	0xbd4ae8c7	-0.0495384
35	0xbd0412f3	-0.032244634
36	0x3d5a7f83	0.05334426
37	0xbd127388	-0.03575471
38	0xbbd32900	-0.0064440966
39	0xbbf6a829	-0.0075273705
40	0x3d61e091	0.055145804
41	0x3c39099b	0.011293794
42	0x3c7ef6f7	0.015561811
43	0x3c969306	0.018380653
44	0xbce9ec93	-0.02855519
45	0x3d9e74c2	0.077371135
46	0x3d1f6d60	0.038922668
47	0x3d9a2f62	0.07528569
48	0x3d7d19c2	0.061792143
49	0x3c1021b6	0.0087971
50	0x3cb3fee2	0.021972124
51	0x3c015244	0.007893149
52	0x3d089ec2	0.03335453
53	0x3c9a23a3	0.018815821
54	0xbcf69edf	-0.030105053
55	0xbd02474d	-0.03180628
56	0xbd982d9f	-0.074305765
57	0xbd33a767	-0.04386082
58	0x3c44d12a	0.012012759
59	0xbd40659e	-0.04697191
60	0xbc91a836	-0.017780405
61	0x3bc1a19e	0.005909159
62	0xbce8a49f	-0.02839881
63	0xbc1390de	-0.009006707
64	0x388ab481	6.613974e-05
65	0xbc671727	-0.014104641
66	0xbcb60dfd	-0.022223467
67	0xbb3d46c4	-0.002888129
68	0x3b3e575c	0.002904377
69	0xbc981973	-0.018566823
70	0xbd1fb9ec	-0.03899567
71	0xbd5b1a9e	-0.05349218
72	0xbc9aed51	-0.01891199
73	0x3d4662d0	0.04843408
74	0x3c21d0b2	0.009876417
75	0xbc71f825	-0.014768635
76	0x3bdac509	0.0066763205
77	0xbc8d089f	-0.017216025
78	0x3d5ac418	0.053409666
79	0xbd411aaf	-0.047144588
80	0xbd606d5b	-0.05479179
81	0xbd1c676f	-0.03818458
82	0x3c15dd65	0.009147023
83	0x3c829aad	0.015942896
84	0xbd85cc49	-0.06533105
85	0xbbf30a42	-0.0074169943
86	0xbcf7b015	-0.03023533
87	0x3ca6d256	0.020363968
88	0xbcfdcb78	-0.03098081
89	0xbd7cfd61	-0.06176508
90	0xbd5a110a	-0.053238906
91	0xbd2a8628	-0.041631848
92	0x3d00415c	0.03131233
93	0x3cc5d52d	0.024149502
94	0x3c27e8a4	0.010248337
95	0xbd4999a1	-0.049218778
96	0x3cd52a56	0.026021164
97	0x3cee69f4	0.029103257
98	0xbca1f8db	-0.019771984
99	0xbc843714	-0.016139545
100	0x3d884337	0.06653445
101	0x3d3da796	0.0463024
102	0x3ccd39ab	0.025051912
103	0x3d727146	0.059190057
104	0x3dd37c13	0.103264
105	0xbd2b9707	-0.041892078
106	0xbd0f82f5	-0.035037
107	0xbd999ec5	-0.07500986
108	0xbc509fb0	-0.012733385
109	0x3d8e81c9	0.06958348
110	0xbc06f7c4	-0.008237783
111	0x3b9936d9	0.004675728
112	0xbd9bfae2	-0.076162115
113	0xbc2c72ea	-0.0105254445
114	0x3cd31af0	0.02576968
115	0x3d892d56	0.066981
116	0x3ac690d3	0.0015149362
117	0xbd81c0f1	-0.06335629
118	0x3cb1f1e4	0.021721788
119	0x3da41919	0.080125995
120	0x3d215f21	0.039397363
121	0x3cb49029	0.022041397
122	0xbd34e5e2	-0.044164546
123	0xbd097637	-0.033560004
124	0x3c9f7a96	0.019467633
125	0x3debc9c8	0.11513096
126	0x3db62bc0	0.088950634
127	0x3d87da6a	0.06633456
128	0x3dada60f	0.08478939
129	0x3d24812f	0.04016226
130	0x3d7e7906	0.062127136
131	0xbcf4f207	-0.029900564
132	0xbc7129b0	-0.014719412
133	0x3d3a7309	0.045519862
134	0xbcb90598	-0.022585675
135	0x3c954a66	0.018223953
136	0x3d479c64	0.04873313
137	0xbc9988a5	-0.018741915
138	0x3d226ec0	0.0396564
139	0x3d5471d6	0.051866375
140	0x3da78dc6	0.08181338
141	0x3d7608f1	0.06006712
142	0x3ceb49d1	0.028721722
143	0x3c32a7e1	0.010904283
144	0x3bcd0e11	0.0062577804
145	0x3d6842db	0.056704383
146	0xbcd38031	-0.025817962
147	0xbba4892a	-0.005021234
148	0xbd3a95e6	-0.04555311
149	0x3cd53af3	0.026029086
150	0xbb2a6039	-0.0025997295
151	0xbd059b40	-0.03261876
152	0x3cc2fab8	0.023801193
153	0xbd65f071	-0.056137506
154	0xbd258a4f	-0.040415104
155	0xbd6a65c5	-0.05722596
156	0xbd3fb266	-0.046800993
157	0xbd0191a7	-0.031633046
158	0x3bdcb7d5	0.0067357817
159	0xbcf43af0	-0.02981326
160	0xbd35dd53	-0.044400524
161	0x3d1fb178	0.038987607
162	0xbcd5d2b2	-0.026101444
163	0x3c54224e	0.012947632
164	0xbd0665ec	-0.032812044
165	0x3d2025c9	0.039098535
166	0x3b94c615	0.004540215
167	0x3d172de4	0.036909
168	0x3d19b18f	0.03752285
169	0xbce5212e	-0.027969923
170	0x3d9b106d	0.07571492
171	0xb9bc5c76	-0.00035927043
172	0xbd2606be	-0.040533774
173	0xbcada430	-0.021196455
174	0x3d08843c	0.033329234
175	0xbbafe198	-0.005367469
176	0x3b6ca9fe	0.0036112065
177	0xbd47270f	-0.048621234
178	0x3d20f147	0.0392926
179	0x3d782bb9	0.060588572
180	0x3c07c43b	0.008286531
181	0xbd1d47f3	-0.038398694
182	0x3cb13326	0.021630835
183	0xbd7204a3	-0.059086453
184	0x3d9701ec	0.073734134
185	0x3d811d09	0.06304366
186	0xbc944214	-0.018097915
187	0xbcb27557	-0.021784468
188	0x3cbac09e	0.022796925
189	0xbcad46ed	-0.021151984
190	0x3cb57e0e	0.022154834
191	0x3d5b661a	0.05356417
192	0x3c8d7184	0.017266043
193	0xbb9cc8eb	-0.0047846935
194	0xbb914398	-0.0044331066
195	0x3ceed8e8	0.029156163
196	0xbc594f14	-0.013263483
197	0xbcdeaba7	-0.02718146
198	0xbd196238	-0.037447184
199	0xbddb2ef3	-0.10702314
200	0xbc8179dc	-0.015805177
201	0xbc59b7f2	-0.013288485
202	0x3bd463e7	0.006481636
203	0x39408fb0	0.00018364075
204	0x3cb4ee04	0.022086151
205	0xbccba6ac	-0.024859749
206	0x3cc728e8	0.024311498
207	0x3be93810	0.007117279
208	0x3d3287f9	0.043586705
209	0xbd1097cf	-0.035301026
210	0xbcc3a944	-0.023884423
211	0xbcc872d1	-0.024468811
212	0xbd120453	-0.035648655
213	0x3c9e8fe7	0.019355727
214	0x3c7e071c	0.015504625
215	0xbcae9f2d	-0.021316135
216	0x3cfc0532	0.030764196
217	0xbb40de57	-0.00294294
218	0xbd7515f6	-0.059835397
219	0xbd3d837e	-0.04626798
220	0xbc1e4ba8	-0.009661593
221	0xbd72edb2	-0.059308715
222	0xbd4f48e9	-0.050606642
223	0xbd261c45	-0.040554304
224	0xbc80fc70	-0.015745372
225	0xbcbcebe4	-0.0230617
226	0x3ccf0446	0.025270592
227	0x3b9f30c7	0.0048581096
228	0x3c717d94	0.014739413
229	0xbc82e277	-0.015977127
230	0x3d3a1f43	0.04543997
231	0xbb92ea71	-0.004483514
232	0x39d2f928	0.00040239957
233	0xbb6afe0f	-0.0035856997
234	0x3d850890	0.06495774
235	0xbca5a1ca	-0.020218749
236	0x3b10c2ab	0.0022088687
237	0xbc96b4fd	-0.018396849
238	0xbd81766e	-0.06321417
239	0xbb49539a	-0.0030719996
240	0xbd8aa379	-0.06769461
241	0xbd2a3df0	-0.041562974
242	0x3c955326	0.018228125
243	0x3c0bce6e	0.008533103
244	0x3adc8110	0.0016823132
245	0x3cbec108	0.023285404
246	0xbca88315	-0.020570317
247	0x3cd87d0e	0.026426818
248	0x3d085678	0.033285588
249	0xbc367a92	-0.0111376215
250	0x3d955246	0.07291083
251	0x3d8a5837	0.06755107
252	0xbcaff9d4	-0.021481432
253	0x3d2c061f	0.041998025
254	0x3d6c97d9	0.057762
255	0xbd2f1ff3	-0.04275508

fc1.bias f4 [120]
0	0xbba9a494	-0.00517709
1	0xbcc5f622	-0.024165217
2	0x3e3b8f66	0.18316421
3	0x3cc3ceb3	0.023902273
4	0xbd0f844d	-0.03503828
5	0xbae10ae3	-0.0017169382
6	0xbe15528f	-0.14582275
7	0x3d5f6755	0.054541904
8	0x3e35847b	0.17726319
9	0xbca42b0f	-0.020040063
10	0x3ce0008a	0.027344007
11	0x3dc50292	0.09619631
12	0x3d9bb3f2	0.07602681
13	0xbd87f49b	-0.06638452
14	0x3d895019	0.067047305
15	0xbd1bf773	-0.038077783
16	0x3d64700d	0.055770922
17	0x3dcfaeca	0.1014076
18	0xbcab0325	-0.020875523
19	0x3a916827	0.0011093662
20	0x3db18545	0.08667997
21	0x3db66224	0.089054376
22	0x3c106a7c	0.00881445
23	0x3e59b21a	0.21259347
24	0xbe14f27d	-0.14545627
25	0x3db4c67f	0.088269226
26	0xbca1c223	-0.019745892
27	0x3d0f4255	0.03497537
28	0xbb8c5937	-0.004283096
29	0xbd2f751d	-0.042836297
30	0xbd8114b9	-0.06302781
31	0xbd943ac1	-0.07237769
32	0x3cc602e6	0.024171304
33	0x3c807c42	0.01568425
34	0x3e5a19eb	0.2129895
35	0x3d380abb	0.04493211
36	0x3c5b0071	0.013366804
37	0x3da90fc2	0.08254959
38	0x3dfca561	0.12336231
39	0x3d316a12	0.043314047
40	0xbbea9077	-0.007158335
41	0x3c92eab3	0.017934179
42	0x3cfb344f	0.030664591
43	0x3d244ba0	0.040111184
44	0xbcdf89ef	-0.027287452
45	0x3c1b4454	0.00947674
46	0x3de0f291	0.10983766
47	0x3e23f3ce	0.16010973
48	0x3d014ffe	0.031570427
49	0xbe18f9c5	-0.1493903
50	0xbcdc1949	-0.026867526
51	0x3d45ed8a	0.048322238
52	0xbc7249e8	-0.014788128
53	0xbd755d93	-0.059903692
54	0xbb5ce4c0	-0.0033705682
55	0x3cb3ab94	0.0219324
56	0xbccfe5be	-0.025378104
57	0x3df11ad7	0.117726974
58	0xbd1cd2a0	-0.038286805
59	0xbd83d999	-0.06437988
60	0x3bbb2bfe	0.0057120314
61	0x3d25da51	0.040491406
62	0x3e0f486c	0.1399247
63	0x3caf39af	0.02138981
64	0xbc0f3674	-0.00874101
65	0x3c65e7df	0.014032333
66	0xbccdb740	-0.025111794
67	0x3deb09ea	0.114765
68	0xbd61af23	-0.055098664
69	0x3c6a5c90	0.014304295
70	0xbcc31a82	-0.02381635
71	0xbd5eebaf	-0.054423984
72	0x3bf84a84	0.0075772423
73	0x3d84cf62	0.06484868
74	0xbe43fbb7	-0.1913899
75	0x3c9852f4	0.018594243
76	0x3dbcc90e	0.09218036
77	0xbb0e4b79	-0.0021712466
78	0xbd10f709	-0.03539184
79	0x3ddf5af2	0.10906018
80	0xbd33d1f1	-0.043901388
81	0x3a3507db	0.00069057726
82	0xbcfe4b03	-0.031041628
83	0xbd04378a	-0.03227953
84	0xbc9176a1	-0.017756762
85	0x3c6cf0ee	0.014461739
86	0x3be8fa2d	0.0071099014
87	0x3c5c1633	0.013433027
88	0xbde298b8	-0.11064285
89	0xbe039f06	-0.12853631
90	0x3bed3789	0.0072392863
91	0xbd128a47	-0.035776403
92	0x3a54ebf2	0.0008122317
93	0x3c74a5bd	0.014932093
94	0xbd10401a	-0.035217382
95	0xba470128	-0.000759142
96	0xbc02ffb1	-0.007995532
97	0x3dd5fccd	0.104486085
98	0x3cc50950	0.024052292
99	0xbd693c0a	-0.056942023
100	0x3d370f75	0.044692475
101	0xbd156e61	-0.03648222
102	0x3d33d5c6	0.043905042
103	0xbd041355	-0.032245
104	0xbdbcace8	-0.09212667
105	0x3db297c3	0.087203525
106	0x3d84dd11	0.064874776
107	0x3e26ad30	0.16277003
108	0xbe48e48f	-0.19618438
109	0xbd9178d5	-0.07103125
110	0x3d46ce63	0.04853667
111	0x3c78d1b8	0.01518672
112	0x3e0693ac	0.1314227
113	0x3c8eb548	0.017420426
114	0x3c7334b6	0.01484411
115	0xbdafb290	-0.0857898
116	0x3db51f73	0.08843889
117	0x3de2a918	0.11067408
118	0x3d80b6b4	0.06284848
119	0xbd1f16db	-0.038840156

fc2.weight f4 [84, 120]
0	0x3dad9402	0.08475496
1	0x3db6c25c	0.0892379
2	0xbc12b262	-0.008953663
3	0x3de14789	0.109999724
4	0x3d709111	0.058732096
5	0x3df5012f	0.119631164
6	0x3d13ce06	0.03608515
7	0x3dca02e2	0.09863831
8	0xbd8f9ab7	-0.070119314
9	0x3d878801	0.066177376
10	0x3da0669a	0.0783207
11	0x3dbb153c	0.091349095
12	0xbd30550f	-0.04304987
13	0x3d0d7437	0.03453466
14	0x3d7c8916	0.061654173
15	0xbd73d30d	-0.059527446
16	0x3d8c5f1f	0.068540804
17	0x3d372a52	0.044718094
18	0xbd5e137d	-0.054217804
19	0xbd9816b4	-0.07426205
20	0x3dfeb68b	0.12437161
21	0x3e0c333e	0.13691422
22	0x39665935	0.00021967741
23	0x3d82a267	0.06378632
24	0xbe1e3519	-0.15449943
25	0xbc8d2d74	-0.017233588
26	0xbd59e7b2	-0.053199477
27	0xbe097700	-0.13424301
28	0x3c06cd0a	0.008227596
29	0x3bf6362f	0.0075137834
30	0x3cff0828	0.031131819
31	0xbda52a62	-0.080647245
32	0x3cd8a4b6	0.026445728
33	0xbdb1fa65	-0.08690337
34	0x3d8de584	0.06928542
35	0x3db11068	0.08645707
36	0xbd63d47c	-0.055622563
37	0xbd53cf9f	-0.051711675
38	0x3e01bf0a	0.12670532
39	0x3d00045f	0.03125417
40	0x3c36a514	0.011147756
41	0x3dbb882e	0.091568336
42	0x3c9ea551	0.019365938
43	0xbd86dffd	-0.06585691
44	0xbd43f567	-0.047841456
45	0x3d93980a	0.072067335
46	0xbd2cce52	-0.04218895
47	0x3c22bb53	0.009932357
48	0x3c6d200c	0.014472973
49	0xbbc2de86	-0.005946937
50	0xbd332cd7	-0.043743934
51	0x3d42007f	0.047363754
52	0x3d33baa4	0.043879166
53	0x3d575581	0.052571777
54	0xbd9f911e	-0.07791351
55	0x3ba035f5	0.0048892447
56	0xbcc43ee2	-0.023955766
57	0x3bd9ec4f	0.0066504846
58	0xbced8148	-0.02899231
59	0xbdaced80	-0.08443737
60	0xbdab1381	-0.083533294
61	0xbd22b454	-0.039722756
62	0x3dd1bae6	0.10240726
63	0x3dfd9e78	0.12383741
64	0xbce85210	-0.028359443
65	0x3d91808d	0.07104597
66	0x3c66a02d	0.014076275
67	0xbb8f9d7a	-0.0043827863
68	0xbdae4c85	-0.08510689
69	0x3d860acd	0.06545029
70	0x3d20a15f	0.039216395
71	0xbda43e64	-0.080197126
72	0xbd1a550d	-0.037678767
73	0xbc9a7e05	-0.018858919
74	0xbd098374	-0.03357263
75	0xbc7573c1	-0.014981211
76	0x3db65a9a	0.089039996
77	0x3d1136aa	0.035452522
78	0x3dbf8cea	0.09353049
79	0xbd6a714b	-0.05723695
80	0x3be63186	0.0070249466
81	0x3d803320	0.06259751
82	0x3cb5b443	0.022180682
83	0x3d6543bd	0.055972803
84	0x3c6020b2	0.01367967
85	0x3bf62457	0.0075116563
86	0xbd37d105	-0.04487707
87	0xbd9c0826	-0.07618742
88	0xbdbd3512	-0.09238638
89	0x3dc9a6ca	0.098462656
90	0xbceb0985	-0.028691063
91	0xbd93c2c2	-0.072148815
92	0xbd6c77f2	-0.057731576
93	0x3c9f93bc	0.019479625
94	0x3d736198	0.059419245
95	0xbd99fabf	-0.07518529
96	0xbad87d38	-0.001651681
97	0xbd09518d	-0.03352504
98	0x3de86651	0.1134764
99	0x3da4d59d	0.08048556
100	0xbd8b5bdf	-0.068046324
101	0x3b9f4bd1	0.004861333
102	0xbdd6a3d1	-0.10480464
103	0x3bc59dee	0.0060307896
104	0x3da34a7d	0.07973192
105	0xbe0ebf5f	-0.1394019
106	0x3da19155	0.07889048
107	0x3cac5503	0.02103663
108	0x3d1dc4c2	0.03851772
109	0x3cb8d8ed	0.022564376
110	0xbd619228	-0.055071026
111	0x3cd23581	0.025660278
112	0x3d2060a1	0.039154653
113	0xbdb8d79a	-0.09025498
114	0x3d8193d4	0.06327024
115	0x3d1b29fa	0.03788183
116	0x3d5ef65c	0.054434165
117	0xbcd1c265	-0.02560539
118	0xbdba81a1	-0.09106756
119	0xbd653032	-0.055954166
120	0x3d038a69	0.03211442
121	0xbd42d0a5	-0.04756226
122	0xbcedc357	-0.02902381
123	0x3d2743fe	0.040836327
124	0x3b789b1a	0.0037934245
125	0x3c3832a1	0.01124254
126	0x3d90d437	0.07071727
127	0xbcfaef46	-0.030631673
128	0xbd47e978	-0.048806638
129	0x3d91d29c	0.07120249
130	0xbd3918e8	-0.045189768
131	0x3d5596e1	0.052145842
132	0x3d7a242d	0.061069656
133	0x3d7826f1	0.060584012
134	0x37fa1a7a	2.9814651e-05
135	0x3dc39f76	0.09551899
136	0x3d920a56	0.07130878
137	0x3b8fe5d4	0.0043914113
138	0x3d92904a	0.07156427
139	0xbd9d829b	-0.07690927
140	0xbdd21d97	-0.1025955
141	0xbe03e3d9	-0.12879886
142	0x3d844515	0.06458489
143	0xbe0bffa3	-0.13671736
144	0x3d276a65	0.04087295
145	0xbd9a46d8	-0.075330436
146	0xbd959259	-0.07303304
147	0x3dd5d3a7	0.1044076
148	0x3b500518	0.0031741317
149	0xbdac6b29	-0.08418877
150	0x3dc8591f	0.097826235
151	0x3b0cc415	0.0021479179
152	0xbd7b281d	-0.061317552
153	0x3cd8764a	0.026423592
154	0x3ca38a98	0.019963548
155	0x3c681f4e	0.01416762
156	0xbdd416ce	-0.10355912
157	0x3b2a2203	0.0025960214
158	0xbd45eb35	-0.048320014
159	0x3da17c19	0.07884998
160	0xbd0bc984	-0.034127727
161	0xbe62d0fa	-0.2215003
162	0x3dac4037	0.084106855
163	0x3d87ab00	0.066244125
164	0xbdabdc3d	-0.083916165
165	0xbde733fd	-0.11289213
166	0xbd798740	-0.06092
167	0x3d485e70	0.048918188
168	0xbc80e7dd	-0.015735561
169	0x3dfac797	0.122451
170	0xbb9743a5	-0.004616218
171	0x3d932bb3	0.07186069
172	0xbdc93117	-0.09823816
173	0xbccfcef5	-0.02536724
174	0x3d5c37bc	0.05376409
175	0x3c58f66b	0.013242344
176	0xbbf19538	-0.0073725246
177	0xbd186d39	-0.037213538
178	0x3d96e43c	0.07367751
179	0x3de4e2d5	0.11176077
180	0xbc640479	-0.013917082
181	0xbd072655	-0.03299554
182	0xbd2ed33d	-0.04268192
183	0x3d775212	0.060381003
184	0xbaa5a118	-0.0012636511
185	0x3da27a96	0.07933538
186	0x3df4be18	0.1195032
187	0xbe2b20ec	-0.16711777
188	0x3daed30a	0.08536346
189	0xbd9447ec	-0.072402805
190	0xbd1c1509	-0.038106
191	0xbdc8e390	-0.09809029
192	0xbd16cb01	-0.036814693
193	0x3d855f1a	0.0651228
194	0xbce83533	-0.02834568
195	0xbd2155f1	-0.0393886
196	0xba8bdfec	-0.0010671592
197	0x3dde99af	0.108691566
198	0xbcb3e76a	-0.021960933
199	0xbd750cbc	-0.059826598
200	0xbd826a74	-0.063679606
201	0x3ce52ff5	0.02797697
202	0x3ddfcb84	0.109274894
203	0xbcc2300f	-0.023704557
204	0xbd450847	-0.048103597
205	0xbd8720ee	-0.06598078
206	0xbdd9ede1	-0.10641075
207	0xbd943041	-0.07235766
208	0xbcbe695c	-0.023243599
209	0x3e3af7cd	0.18258591
210	0x3df37792	0.118880406
211	0xbc484703	-0.012223962
212	0x3db926ca	0.090406016
213	0xbd97a2c7	-0.07404094
214	0x3d644538	0.055730075
215	0xbcb4045f	-0.02197474
216	0xbd944625	-0.072399415
217	0xbdbb5225	-0.09146527
218	0xbcf30659	-0.029666113
219	0x3db80104	0.08984569
220	0xbde45f0c	-0.11150941
221	0xbd36aa50	-0.044596016
222	0xbc4cc76a	-0.012498716
223	0xbd98ce3d	-0.07461212
224	0xbd60e195	-0.05490263
225	0x3d914298	0.0709278
226	0xbe17e9c4	-0.14835268
227	0xbe1276b1	-0.1430309
228	0x3d4d7e01	0.050168995
229	0x3dc8138f	0.097693555
230	0xbdf4309d	-0.11923335
231	0xbd178554	-0.036992386
232	0xbc25cd62	-0.010119768
233	0xbd1b43ca	-0.037906446
234	0xbd94d79c	-0.07267687
235	0xbdb0ea63	-0.08638456
236	0xbb25ebb8	-0.0025317501
237	0x3c693f0f	0.014236226
238	0xbd7e51d7	-0.062089767
239	0xbdccf7ee	-0.10008226
240	0xbd298c8d	-0.041393805
241	0x3c514f42	0.012775244
242	0x3e0c7b45	0.13718899
243	0x3daf2840	0.08552599
244	0xbd70d094	-0.058792666
245	0xbd09a02f	-0.03360003
246	0xbd381cbd	-0.044949282
247	0xbcbde4a7	-0.023180319
248	0xbd880f47	-0.06643539
249	0x3dc6fdcf	0.09716379
250	0x3d359fcf	0.04434186
251	0x3dabd590	0.08390343
252	0xbc4a183f	-0.012334882
253	0xbd2f47e2	-0.042793162
254	0x3dc2a3f6	0.09503929
255	0xbd8d03d3	-0.06885495

fc2.bias f4 [84]
0	0x3e2fc721	0.17165805
1	0xbe32fb88	-0.17478764
2	0x3daee253	0.08539262
3	0x3d4b588d	0.049644995
4	0xbc960058	-0.01831071
5	0xbc02187f	-0.007940411
6	0xbd3ac798	-0.045600504
7	0x3e4dfff1	0.20117165
8	0xbd1cccea	-0.03828136
9	0xbd24c321	-0.040225152
10	0xbd0ce1ce	-0.03439503
11	0x3e5c99cf	0.21543048
12	0x3dc61c60	0.09673381
13	0x3d6847da	0.056709148
14	0x3e849c8f	0.25900695
15	0xbe362eb9	-0.17791261
16	0x3e7965af	0.24355195
17	0x3d51411b	0.05108748
18	0x3cf007ab	0.029300531
19	0x3c74f008	0.014949806
20	0xbdaea904	-0.08528331
21	0xbdb9bdc3	-0.09069397
22	0x3e86ea53	0.2635065
23	0x3e1f108f	0.1553366
24	0xbd610db0	-0.054944694
25	0xbc8820ce	-0.016617205
26	0x3e3dc5eb	0.18532531
27	0x3e6baa31	0.23014142
28	0x3bdb124c	0.0066855308
29	0x3e47ed61	0.19524147
30	0xbc403b18	-0.011732839
31	0xbce0277b	-0.027362576
32	0x3e10d9f8	0.14145648
33	0xbd881a46	-0.06645636
34	0x3bca9b12	0.0061830366
35	0x3c96bfdf	0.018402038
36	0x3e8c16b9	0.27361086
37	0xbd5f9e4e	-0.05459433
38	0x3d9423c6	0.07233386
39	0xbd23b2a5	-0.03996529
40	0x3db9335f	0.090430014
41	0x3cf8c32f	0.030366508
42	0xbdb686c6	-0.08912425
43	0xbdbb260b	-0.091381155
44	0xbe401e42	-0.18761542
45	0x3d86d25b	0.06583091
46	0xbbb82b18	-0.0056203716
47	0xbd03a379	-0.03213832
48	0x3f04b739	0.51842076
49	0x3e806b4c	0.2508186
50	0xbd1075ad	-0.035268474
51	0xbd26dd7b	-0.040738564
52	0x3e1aff68	0.15136492
53	0xbdac4d10	-0.08413136
54	0xbd9bd20b	-0.07608422
55	0xbbf2a4ca	-0.0074048983
56	0xbe090f0c	-0.13384646
57	0xbac40c59	-0.0014957293
58	0x3e3ebced	0.18626757
59	0x3d8edec8	0.06976086
60	0x3dc9e7f9	0.098586984
61	0x3dc3a44c	0.095528215
62	0x3dc35833	0.09538307
63	0x3e53e09b	0.20691149
64	0x3eb2a487	0.3489115
65	0xbe1b2509	-0.15150847
66	0x3dac0ddb	0.0840108
67	0xbd9a9487	-0.075478606
68	0xbcee1002	-0.029060367
69	0x3dc56999	0.09639282
70	0x3d58dae4	0.052943125
71	0x3e45e5b9	0.19325913
72	0xbd7f6a0a	-0.062356986
73	0x3e305393	0.17219381
74	0xbb02d880	-0.001996547
75	0x3cddc9bf	0.02707374
76	0xbdb36363	-0.08759191
77	0x3e19de90	0.15026307
78	0x3d6c3794	0.05767019
79	0xbc420fb7	-0.011844567
80	0xbca75eef	-0.02043101
81	0x3c71ee2d	0.014766258
82	0x3ad7178f	0.0016410219
83	0x3cc05eb8	0.023482665

fc3.weight f4 [10, 84]
0	0xbe59b62f	-0.21260904
1	0x3e083a44	0.13303477
2	0xbdf41b89	-0.119193144
3	0x3e9d464f	0.30717704
4	0x3d92b8b3	0.07164135
5	0xbd2cf47d	-0.04222535
6	0xbde908d4	-0.11378637
7	0xbd8232e0	-0.0635736
8	0x39130881	0.0001402218
9	0xbcb1bfa9	-0.021697836
10	0xbdcba1e2	-0.09942986
11	0x3e4eecc2	0.20207503
12	0xbcacbbe1	-0.021085681
13	0x3e1b860e	0.15187857
14	0xbe236625	-0.15956934
15	0xbd220f8c	-0.039565608
16	0x3c37ffa8	0.011230387
17	0xbdc323e4	-0.0952833
18	0x3d818f2e	0.063261375
19	0xbd7e65e2	-0.06210888
20	0x3d999683	0.07499411
21	0x3e286d46	0.16447935
22	0x3e8d7cb7	0.27634212
23	0x3d400170	0.04687637
24	0xbd36b043	-0.04460169
25	0x3e5dc569	0.21657337
26	0x3e27276a	0.16323629
27	0xbe2b144b	-0.1670696
28	0xbdcce57e	-0.1000471
29	0x3d698b01	0.05701733
30	0xbd9340ce	-0.07190095
31	0x3cc2461a	0.023715068
32	0xbd03a701	-0.03214169
33	0xbcddb456	-0.02706353
34	0x3be4551c	0.0069681536
35	0x3e49d70e	0.19710943
36	0xbdc45d8d	-0.09588156
37	0x3cac10c1	0.021004083
38	0x3d8d0d91	0.06887353
39	0x3e0e0f88	0.13873112
40	0xbd9346b7	-0.07191222
41	0xbdd956c5	-0.10612253
42	0x3e1296cf	0.14315341
43	0xbc87d0f2	-0.016579125
44	0xbdd13f32	-0.10217132
45	0xbe07f748	-0.13277924
46	0xbd3e9c0b	-0.046535533
47	0xbe015afa	-0.12632361
48	0xbdf0a509	-0.11750228
49	0x3e85fa6d	0.26167622
50	0x3ccf1bc1	0.025281789
51	0x3dfe8d93	0.12429347
52	0xbd5166b7	-0.051123347
53	0x3c2daf20	0.010600835
54	0x3e003624	0.12520653
55	0xbda531fa	-0.08066173
56	0x3d508b2e	0.050913982
57	0xbe025de0	-0.12731123
58	0xbd88e5e1	-0.06684471
59	0xbddd8411	-0.10816205
60	0x3db1cd5a	0.08681746
61	0x3dbaaaab	0.091145836
62	0xbdfc60a0	-0.12323117
63	0xbeb58f3d	-0.35460845
64	0x3d5bcd7c	0.053662762
65	0x3e0437f1	0.12911965
66	0x3d24f56a	0.040273108
67	0x3d18e763	0.037330043
68	0xbd8b4cbd	-0.06801746
69	0xbd34c507	-0.044133212
70	0x3e091496	0.13386759
71	0xbe7c5bc9	-0.24644388
72	0x3d8bfb45	0.06835035
73	0x3e5882cf	0.2114365
74	0xbd310f3c	-0.04322742
75	0xbc3356f6	-0.010946026
76	0x3d6de6b9	0.058081362
77	0x3e8fdfc6	0.28100413
78	0x3e627e4a	0.22118488
79	0x3c95ef99	0.018302726
80	0xbdabadfb	-0.083827935
81	0xbd10df6a	-0.035369314
82	0xbdb91ead	-0.09039054
83	0x3d65673e	0.056006663
84	0xbe5fed06	-0.21867761
85	0x3e971b63	0.29513082
86	0xbd9167d6	-0.07099883
87	0x3e47e185	0.19519623
88	0xbdb8f4bf	-0.090310566
89	0xbd067eb0	-0.032835662
90	0x3d50fd09	0.051022563
91	0xbded0574	-0.11573306
92	0xbdac024d	-0.08398876
93	0xbb06bb81	-0.0020558538
94	0xbd9c8010	-0.076416135
95	0xbda21dd6	-0.07915847
96	0xbe4a618e	-0.19763777
97	0x3d636bf0	0.05552286
98	0xbda34085	-0.079712905
99	0x3e8b4635	0.27202
100	0x3d42cde6	0.04755964
101	0xbdc17f45	-0.09448103
102	0x3e289020	0.1646123
103	0xbd3bbc7c	-0.04583405
104	0xbdabee34	-0.08395043
105	0xbda16e37	-0.0788235
106	0xbe2c61ac	-0.16834134
107	0xbb3784ec	-0.0028002812
108	0x3d681b13	0.056666445
109	0x3e808a8e	0.2510571
110	0x3deb5dc7	0.11492496
111	0xbe603ecf	-0.2189896
112	0x3de77193	0.113009594
113	0xbc9bb6d9	-0.019008087
114	0xbccf52cc	-0.025308035
115	0x3c7d33a5	0.015454208
116	0xbeaab7f9	-0.33343485
117	0x3dac14bc	0.08402392
118	0xbd8eaad1	-0.069661744
119	0xbdb566b3	-0.08857479
120	0xbdf6fb67	-0.1205967
121	0x3dd30cfe	0.103052124
122	0x3df4eb5c	0.11958954
123	0x3d295d28	0.041348606
124	0xbd86e180	-0.065859795
125	0x3cabac8b	0.020956298
126	0x3cf1fc9d	0.0295394
127	0x3de0b5b8	0.1097216
128	0x3e1448b6	0.14480862
129	0x3ddb9d64	0.10723379
130	0x3d3a087f	0.04541826
131	0x3e908a68	0.28230596
132	0xbef620cd	-0.480719
133	0x3dfefce7	0.12450581
134	0x3e70098b	0.2344114
135	0x3e5c470b	0.21511476
136	0x3e8f1e42	0.27952772
137	0x3d28dd3c	0.04122661
138	0xbd770053	-0.060303044
139	0xbdb88a79	-0.090107866
140	0x3e0afb25	0.13572367
141	0x3e922044	0.28540242
142	0xbdceb485	-0.10093025
143	0x3ca729f3	0.020405745
144	0xbe4833c8	-0.19551003
145	0xbe166f0b	-0.14690797
146	0x3cd85226	0.026406359
147	0xbdb17012	-0.08663954
148	0xbe335034	-0.17511064
149	0xbe1bca93	-0.15213995
150	0x3c905ef9	0.017623411
151	0x3e634b32	0.22196653
152	0x3d1b44d5	0.03790744
153	0xbe4f9631	-0.20272137
154	0x3e3c89bb	0.18411915
155	0xbe9414c1	-0.28922084
156	0x3d1d19ba	0.038354613
157	0x3e0d9f53	0.13830309
158	0xbda67eb1	-0.08129633
159	0x3c9e8ff8	0.019355759
160	0x3ce877d5	0.028377453
161	0xbe3dab04	-0.18522269
162	0xbdab761c	-0.08372137
163	0x3e263ce4	0.16234165
164	0x3c8ddfff	0.017318724
165	0xbd6314da	-0.055439807
166	0xbd8de900	-0.06929207
167	0x3df99206	0.12186055
168	0x3e6eda22	0.23325399
169	0xbde90c1b	-0.11379262
170	0x3e716a54	0.23575717
171	0x3d140b3b	0.036143523
172	0x3bd10549	0.006378804
173	0x3ca38f95	0.019965926
174	0xbdcb528f	-0.09927856
175	0x3e1ed903	0.15512471
176	0xbd09d847	-0.033653524
177	0x3dfd3c64	0.12365034
178	0xbd39a28f	-0.045321044
179	0x3e3f8015	0.18701203
180	0xbdec88c4	-0.115495235
181	0xbd3def32	-0.046370693
182	0xbd020b1d	-0.03174888
183	0xbe2e5be8	-0.17027247
184	0x3e93e913	0.2888876
185	0x3dada1a8	0.08478099
186	0x3caa6173	0.02079842
187	0xbe16edd9	-0.14739169
188	0xbc6e48a4	-0.014543686
189	0xbe015222	-0.12628987
190	0x3e0ace2f	0.13555215
191	0xbbff6784	-0.0077943224
192	0xbd6f9dd7	-0.058500137
193	0xbe845a13	-0.2584997
194	0xbc3d142b	-0.011540453
195	0x3e740c0e	0.23832723
196	0x3d436bad	0.04771011
197	0xbe03cfe2	-0.1287227
198	0x3b9302cf	0.004486419
199	0x3dd0c663	0.10194089
200	0x3e1a9fc5	0.1510001
201	0xbc514ca7	-0.012774623
202	0xbd676023	-0.056488167
203	0x3e99808b	0.29980883
204	0xbe10f0e3	-0.14154391
205	0xbd3e92be	-0.046526663
206	0xbe436405	-0.19081123
207	0x3d8da364	0.0691593
208	0x3e46dc97	0.19420086
209	0xbd3c95a2	-0.04604114
210	0xbdefee6d	-0.11715398
211	0x3d942de6	0.07235317
212	0x3da1314a	0.07870729
213	0x3ce36e28	0.027762488
214	0x3e155c4a	0.14585987
215	0x3af20d98	0.0018467186
216	0x3e2766d6	0.16347823
217	0xbdf3c629	-0.119030304
218	0x3ce7924f	0.028268008
219	0xbdf5389a	-0.119736865
220	0xbe3b88e4	-0.18313938
221	0x3d6f93a7	0.05849042
222	0x3de25822	0.11051966
223	0xbd961d05	-0.07329754
224	0xbdc354d5	-0.09537665
225	0x3d515616	0.05110749
226	0xbd4cb9d9	-0.049981926
227	0x3c115b62	0.008871885
228	0x3e40d8fa	0.1883277
229	0x3dcb4b18	0.09926432
230	0xbe2d8b15	-0.16947587
231	0x3e0a72b3	0.13520317
232	0x3d62f025	0.0554048
233	0xbd580064	-0.052734748
234	0xbdc1ca14	-0.094623715
235	0xbcafa716	-0.021441977
236	0xbd271ca4	-0.0407988
237	0x3db962a5	0.09052018
238	0x3d6b5cf7	0.057461705
239	0x3da765e6	0.081737325
240	0xbc78399c	-0.015150454
241	0x3d0af629	0.033926163
242	0x3d86fbb2	0.06590976
243	0xbcf9e21d	-0.030503327
244	0xbde76805	-0.11299137
245	0x3d920b48	0.07131058
246	0x3c5ff098	0.013668202
247	0x3b186770	0.0023255013
248	0x3db3c1d1	0.08777202
249	0xbc24ae62	-0.010051342
250	0xbd9ecbb3	-0.07753696
251	0xbe491e6a	-0.19640508
252	0x3a4e0484	0.0007858949
253	0xbe65b98c	-0.22434062
254	0xbd06255e	-0.03275048
255	0xbdf7051d	-0.12061522

fc3.bias f4 [10]
0	0xbe33c99d	-0.17557378
1	0xbf238881	-0.63880163
2	0x3db1daf4	0.0868434
3	0x3eb0b12f	0.3451018
4	0x3ed2aae1	0.41145995
5	0xbd70f5eb	-0.058828276
6	0xbd3c64fc	-0.045994744
7	0xbe95f396	-0.29287404
8	0x3eefa44b	0.46805033
9	0xbebedbd1	-0.37277082
